…
    "    validation_data=test_generator,\n",
    "    validation_steps=int(np.ceil(test_generator.n / float(batch_size)))\n",
    ")\n"
   ]
  },
  {
   "cell_type": "code",
   "execution_count": 21,
   "metadata": {
    "scrolled": true
   },
   "outputs": [
    {
     "name": "stdout",
     "output_type": "stream",
     "text": [
      "Model: \"sequential_1\"\n",
      "_________________________________________________________________\n",
      "Layer (type)                 Output Shape              Param #   \n",
      "=================================================================\n",
      "conv2d_1 (Conv2D)            (None, 128, 128, 16)      32        \n",
      "_________________________________________________________________\n",
      "max_pooling2d_1 (MaxPooling2 (None, 64, 64, 16)        0         \n",
      "_________________________________________________________________\n",
      "conv2d_2 (Conv2D)            (None, 64, 64, 32)        4640      \n",
      "_________________________________________________________________\n",
      "max_pooling2d_2 (MaxPooling2 (None, 32, 32, 32)        0         \n",
      "_________________________________________________________________\n",
      "conv2d_3 (Conv2D)            (None, 32, 32, 64)        18496     \n",
      "_________________________________________________________________\n",
      "max_pooling2d_3 (MaxPooling2 (None, 16, 16, 64)        0         \n",
      "_________________________________________________________________\n",
      "flatten_1 (Flatten)          (None, 16384)             0         \n",
      "_________________________________________________________________\n",
      "dropout_1 (Dropout)          (None, 16384)             0         \n",
      "_________________________________________________________________\n",
      "dense_1 (Dense)              (None, 512)               8389120   \n",
      "_________________________________________________________________\n",
      "dropout_2 (Dropout)          (None, 512)               0         \n",
      "_________________________________________________________________\n",
      "dense_2 (Dense)              (None, 2)                 1026      \n",
      "=================================================================\n",
      "Total params: 8,413,314\n",
      "Trainable params: 8,413,314\n",
      "Non-trainable params: 0\n",
      "_________________________________________________________________\n"
     ]
    }
   ],
   "source": [
    "\n",
    "model.summary()"
   ]
  },
  {
   "cell_type": "code",
   "execution_count": 54,
…
